# YOLOv5 ðŸš€ by Ultralytics, GPL-3.0 license

# Parameters
nc: 80  # number of classes
depth_multiple: 0.33  # model depth multiple
width_multiple: 0.50  # layer channel multiple
anchors:
#  - [10,13, 16,30, 33,23]  # P3/8
#  - [30,61, 62,45, 59,119]  # P4/16
#  - [116,90, 156,198, 373,326]  # P5/32
  - [ 4,5, 8,10, 22,18 ]   #  P2/4
  - [ 10,13, 16,30, 33,23 ]  # P3/8
  - [ 30,61, 62,45, 59,119 ]  # P4/16
  - [ 116,90, 156,198, 373,326 ]  # P5/32

# YOLOv5 v6.0 backbone
backbone:
  # [from, number, module, args]
  [[-1, 1, Conv, [64, 6, 2, 2]],  # 0-P1/2
   [-1, 1, Conv, [128, 3, 2]],  # 1-P2/4
   [-1, 3, C3, [128]],
   [-1, 1, Conv, [256, 3, 2]],  # 3-P3/8
   [-1, 6, C3, [256]],
   [-1, 1, Conv, [512, 3, 2]],  # 5-P4/16
   [-1, 9, C3, [512]],
   [-1, 1, Conv, [1024, 3, 2]],  # 7-P5/32
   [-1, 3, C3, [1024]],
   [-1, 1, SPPF, [1024, 5]],  # 9
  ]

## YOLOv5 v6.0 head
#head:
#  [[-1, 1, Conv, [512, 1, 1]],
#   [-1, 1, nn.Upsample, [None, 2, 'nearest']],
#   [[-1, 6], 1, Concat, [1]],  # cat backbone P4
#   [-1, 3, C3, [512, False]],  # 13
#
#   [-1, 1, Conv, [256, 1, 1]],
#   [-1, 1, nn.Upsample, [None, 2, 'nearest']],
#   [[-1, 4], 1, Concat, [1]],  # cat backbone P3
#   [-1, 3, C3, [256, False]],  # 17 (P3/8-small)
#
#   [-1, 1, Conv, [256, 3, 2]],
#   [[-1, 14], 1, Concat, [1]],  # cat head P4
#   [-1, 3, C3, [512, False]],  # 20 (P4/16-medium)
#
#   [-1, 1, Conv, [512, 3, 2]],
#   [[-1, 10], 1, Concat, [1]],  # cat head P5
#   [-1, 3, C3, [1024, False]],  # 23 (P5/32-large)
#
#   [[17, 20, 23], 1, Detect, [nc, anchors]],  # Detect(P3, P4, P5)
#  ]

head:
  [ [ -1, 1, Conv, [ 512, 1, 1 ] ],                  #10  [1,1024,20,20]  ->  [1,512,20,20]
    [ -1, 1, nn.Upsample, [ None, 2, 'nearest' ] ],  #11  [1,512,20,20]  ->  [1,512,40,40]
    [ [ -1, 6 ], 1, Concat, [ 1 ] ],                 #12  [1,512,40,40] + [1,512,40,40] = [1,1024,40,40]
    [ -1, 3, C3, [ 512, False ] ],                   #13  [1,1024,40,40]  ->  [1,512,40,40]  (Falseä¸è¿›è¡Œshort cut)

    [ -1, 1, Conv, [ 256, 1, 1 ] ],                  #14  [1,512,40,40]  ->  [1,256,40,40]
    [ -1, 1, nn.Upsample, [ None, 2, 'nearest' ] ],  #15  [1,256,40,40]  ->  [1,256,80,80]
    [ [ -1, 4 ], 1, Concat, [ 1 ] ],                 #16  [1,256,80,80] + [1,256,80,80] = [1,512,80,80]
    # å¢žåŠ 160çš„ä¸€å±‚
    [ -1, 3, C3, [ 256, False ] ],                   #17  [1,512,80,80]  ->  [1,256,80,80]
    [ -1, 1, Conv, [ 128, 1, 1 ] ],                  #18  [1,256,80,80]  ->  [1,128,80,80]
    [ -1, 1, nn.Upsample, [ None, 2, 'nearest' ] ],  #19  [1,128,80,80]  ->  [1,128,160,160]
    [ [ -1, 1 ], 1, Concat, [ 1 ] ],                 #20  [1,128,160,160] + [1,128,160,160] = [1,256,160,160]

    [ -1, 3, C3, [ 256, False ] ],                   #21  [1,256,160,160]  ->  [1,256,160,160]
    [ -1, 1, Conv, [ 256, 3, 2 ] ],                  #22  [1,256,160,160]  ->  [1,256,80,80]
    [ [ -1, 17 ], 1, Concat, [ 1 ] ],                #23  [1,256,80,80] + [1,256,80,80] = [1,512,80,80]
    # æŽ¥ä¸Š17å±‚
    [ -1, 3, C3, [ 256, False ] ],                   #24(17)  [1,512,80,80]  ->  [1,256,80,80]

    [ -1, 1, Conv, [ 256, 3, 2 ] ],                  #25(18)  [1,256,80,80]  ->  [1,256,40,40]
    [ [ -1, 14 ], 1, Concat, [ 1 ] ],                #26(19)  [1,256,40,40] + [1,256,40,40] = [1,512,40,40]
    [ -1, 3, C3, [ 512, False ] ],                   #27(20)  [1,512,40,40]  ->  [1,512,40,40]

    [ -1, 1, Conv, [ 512, 3, 2 ] ],                  #28(21)  [1,512,40,40]  ->  [1,512,20,20]
    [ [ -1, 10 ], 1, Concat, [ 1 ] ],                #29(22)  [1,512,20,20] + [1,512,20,20] = [1,1024,20,20]
    [ -1, 3, C3, [ 1024, False ] ],                  #30(23)  [1,1024,20,20]  -> [1,1024,20,20]

    [ [ 21, 24, 27, 30 ], 1, Detect, [ nc, anchors ] ],  # å¢žåŠ 21  åŽŸ17->24, åŽŸ20->27, åŽŸ23->30
  ]